checkpoint.pth (torch_old, 28391 bytes, 6 tensors)

fc1.weight f4 [64, 37]
00000000: de0f 2e3e aa2c 26be 3a2c 2ebd bb7e b0be
00000010: d4c8 8bbc 8df1 263e 5550 c4be 6130 f13d
00000020: 78d4 4fbd fd5e 4abe 58aa 853c c9ff 83bd
00000030: 5455 b7be da34 143e 2ad1 bf3d 2c00 333e
00000040: 0433 9bbe c7c6 503d b959 073e aeb9 edbb
00000050: 8652 f63d 4ee1 dfbb 00fb b03d 9274 003e
00000060: f01a d3bd 8113 1a3e 2a26 aebd 103d a5bd
00000070: cf58 4abe e37a 68be f22c d13c cb0a 4ebe
00000080: a414 00bd 2aa2 8c3c 4fcf bdbe 3334 e2bd
00000090: b06b bebd ea11 2f3e 2440 003e 0d47 b13c
000000a0: 457f 9dbd f64f afbe 4b1d 8a3d e626 e1bd
000000b0: 4f88 62bd 3b65 b5be 4311 03bf 3b57 143c
000000c0: 3001 51bc de39 c13d ceee 053e f77d c63e
000000d0: 8f94 db3d ab06 e2bd 8972 2e3e 9f1f 2abe
000000e0: d608 1bbe 0237 18be ea77 c63c 9463 47be
000000f0: ab9c 393d ffe4 9f3d 5a05 c1bc ad5e 823d
00000100: 691b b5bd 4776 5fbd 1425 b4bb 6282 403d
00000110: 1225 073d a7f2 313e 7bb7 493d b20c c73e
00000120: ca09 af3d b5e7 373c fe5e 803b 3f3b 86bc
00000130: 5930 063e 19f9 613e e720 b33c edea d4be
00000140: 4793 863e 90b4 293e da00 883d e318 a4bd
00000150: 905c 8a3d 1fd3 8abd 2645 7b3c effb 9ebc
00000160: 5921 3ebd 4a92 c0bc 98ba 063e 336f 033d
00000170: b006 163e 82ee 6a3e c8ba f4be ca31 d13d
00000180: 3300 5abd 8680 613e b90e 00be 66ef 92be
00000190: 190f b03d dc83 2f3e 30bd 473e e019 333d
000001a0: ccf8 cabe 791b 0dbe e5eb fb3d fd00 c33d
000001b0: 3ea8 bebd 628a ae3d 3c46 d0ba 55d1 cebe
000001c0: 3fe6 cf3d 1ead da3e f3e2 c6be 6b15 7abf
000001d0: 0320 8fbd 8b4d 37bd a444 893d 8412 f7be
000001e0: c0f2 26bf e760 0e3e 24b5 b03c 6ba9 edbd
000001f0: 314c 27bf 22f0 e7bd f67a edbd c6ce c9be
00000200: ea70 ad3c 6d6d 59bf 3dce 3ebf 261d 533d
00000210: e321 88be 3a59 15be 1835 6f3d 7bfb 1dbe
00000220: adc7 81bc fd68 62be ddb8 de3d cd07 fdbe
00000230: 1f15 13bf 25ce 833e 26ff df3d 4b5d 44be
00000240: d193 e0be d87e b7be ea90 683e 964f 113c
00000250: 1aaf 16be 914e 72be 399f 52be 0643 22bc
00000260: 64be 843e d0c6 b33d e800 ef3c 4e22 3a3d
00000270: 1f84 12bc cc98 a7bc 1832 8d3e 58d4 a4be
00000280: ed4f 9ebe 65ae cfbe df39 a0bf b1ad 5bbd
00000290: e85c 0abd f5d8 2bbd 407b 66bd 6ca0 3f3e
000002a0: cbb8 8abd f20c cfbd 22dc cabd 66bd 643e
000002b0: 6e41 4b3e cea9 6cbe a990 403e e4a0 1a3e
000002c0: f150 663d d482 14bc 7f39 d63a 6f9d 70bc
000002d0: ff0a debc 69ac 0a3e e40f da3c c95b a23c
000002e0: 3a9d dfbb c93e 1ebe 9881 5f3d 4f76 c9bd
000002f0: 362c 4f3d 3a8a a93e 9227 a83d 2f1c 79be
00000300: 2126 b2bc dbf7 ffbc df0a 3cbf a739 2cbe
00000310: 5eb6 e43d 9c77 05be e0bf 5fbe b744 0b3e
00000320: dad4 863d 4bfc 6ebd 1e26 cfbd a087 a2be
00000330: 05f7 55be 892b 6abd 3727 45be 7bfc 4f3e
00000340: a324 343e 8b3e d43d d5bf aabd f944 843d
00000350: 4f27 b63b f45d 8dbe bc24 a63d b0ae 9fbd
00000360: 3817 44bc 8e05 65be e782 843e 1037 78be
00000370: 8ebd 433e 530e a6bc 2282 0d3e 82ed c83c
00000380: 5932 76be 1c53 e9bc 8617 cfbe acbc 313d
00000390: 64d5 b9bd 124a eabb e374 08be be33 643e
000003a0: 73b7 27bd cd6d 0d3e 7cc0 1a3d b66c 16bd
000003b0: 530c d63e 21c6 78bd 68a9 02bd 1c07 8bbd
000003c0: 4bba 763d 0dde 183e 87f6 45be ecff 403d
000003d0: 82e4 16be 6932 1c3e c268 883e 0530 14be
000003e0: 6259 363e 720a 1ebe 8881 2fbe 54bf 3b3d
000003f0: e0db c1bd 6cf3 593d e50b 26be f114 78bc
0.1699824 -0.16227975 -0.042522646 -0.34471688 -0.017063536 0.16303082 -0.38342538 0.11776806
-0.050739735 -0.19762798 0.016316578 -0.064452715 -0.35807288 0.14473286 0.09366067 0.17480534
-0.3031236 0.05097082 0.1321782 -0.0072548008 0.12027459 -0.0068322783 0.086416245 0.12544468
-0.10307872 0.15046503 -0.08503373 -0.080682874 -0.1976044 -0.22703128 0.025534127 -0.20121305
-0.031269684 0.01716717 -0.37072226 -0.110451125 -0.092978835 0.17096677 0.12524468 0.021640325
-0.0769029 -0.34240693 0.067438684 -0.109937474 -0.055305775 -0.35428795 -0.51198214 0.0090540005
-0.012756631 0.094348654 0.13079378 0.3876798 0.10721695 -0.11036428 0.17035879 -0.16613625
-0.1514009 -0.14864734 0.024227101 -0.1947158 0.045315426 0.078073494 -0.023562122 0.06365714
-0.08843119 -0.054556157 -0.005497584 0.046999343 0.032994337 0.17377721 0.049247246 0.38876873
0.08546789 0.011224677 0.003917574 -0.016385673 0.1310438 0.2206768 0.021866275 -0.41585484
0.2628424 0.16572785 0.066407874 -0.08012559 0.06755936 -0.067785494 0.0153363105 -0.01940724
-0.04641852 -0.023507256 0.13157117 0.03208847 0.14650989 0.22942546 -0.47798753 0.10214575
-0.053222846 0.22021684 -0.12505616 -0.28698272 0.0859663 0.17140144 0.19505763 0.04372585
-0.39642942 -0.13780011 0.12300853 0.09521673 -0.093094334 0.08522488 -0.0015890072 -0.40394083
0.10151338 0.42710203 -0.38845024 -0.9768893 -0.069885276 -0.044751685 0.06702545 -0.48256314
-0.6521416 0.13904153 0.02157075 -0.116045795 -0.65350634 -0.113250986 -0.115957186 -0.39415568
0.021172006 -0.84932595 -0.74533445 0.05154147 -0.26588354 -0.14584818 0.058400244 -0.15427963
-0.015842283 -0.22110362 0.108751036 -0.49420014 -0.57454103 0.25743213 0.109373376 -0.19176213
-0.43862775 -0.35838962 0.2271153 0.008869072 -0.14715233 -0.23662783 -0.20568551 -0.009903675
0.25926507 0.08778155 0.029175237 0.04544287 -0.008942633 -0.020458601 0.2757728 -0.32193255
-0.30920354 -0.4056274 -1.2517661 -0.053632442 -0.03378001 -0.041954953 -0.056269884 0.1871354
-0.06773528 -0.10109891 -0.09905268 0.22337875 0.19849178 -0.2311165 0.18805183 0.15100437
0.056229535 -0.009064395 0.001634404 -0.014685973 -0.027104853 0.13542332 0.026618905 0.019819157
-0.006824163 -0.15453638 0.05456695 -0.09837019 0.050579272 0.3311327 0.082106724 -0.24327157
-0.021746697 -0.031246116 -0.7345409 -0.16818868 0.11167596 -0.13033909 -0.21850538 0.13600431
0.06583567 -0.058346074 -0.10114692 -0.317441 -0.20895012 -0.057170425 -0.1925324 0.20311157
0.17592101 0.103634916 -0.0833737 0.06458468 0.005558885 -0.27610743 0.08112475 -0.07796991
-0.011968426 -0.223654 0.2588112 -0.24239755 0.19115278 -0.020270502 0.13819173 0.024527315
-0.24042644 -0.028482012 -0.40447634 0.043392822 -0.09073904 -0.007149943 -0.13325839 0.22285363
-0.040946435 0.13811417 0.037781224 -0.03672477 0.41806278 -0.060735825 -0.03189984 -0.067884654
0.060236257 0.14928456 -0.19332324 0.047119066 -0.14735606 0.15253605 0.26642424 -0.14471443
0.17807534 -0.15433672 -0.17139256 0.04583676 -0.09465766 0.05321066 -0.16215475 -0.015141712

fc1.bias f4 [64]
00000000: a7b1 023e b68d 2ebd efed 54be 62b8 e6bd
00000010: e2d2 2f3e 870b 0bbe dc6c efbd a377 c13d
00000020: 22c7 9b3d f7d6 55be 1546 1e3e 72fd 613e
00000030: 732a 813e 98f6 243e c072 b7bd 4d77 04bd
00000040: f3e9 35bc d324 733d b9fb 403d c49b 96be
00000050: 1325 59be d9ce aa3d 2284 9cbd e0f5 6cbd
00000060: 2515 c4bd 8a38 d23d 0512 8cbd 79e6 01be
00000070: 51e0 0c3e 63dd 983c 6da7 16bd 809a 1abe
00000080: 8891 563d 4ccc a4bb e967 a9bd 4998 103d
00000090: 1363 d3bd d886 6a3c 6b4d f6bd a3ab cabd
000000a0: 6b49 74bd 1480 4abc 0561 d6bd 6890 0f3e
000000b0: ba2b 1d3c fb50 adbd 157f 83bc a5b6 03be
000000c0: 3083 23be 2645 87bc 9877 05be c46b 0e3e
000000d0: 1e01 90bd b8ee 33bc 7c2f 70be cb8b ab3d
000000e0: 3d6e 1b3e dd8a 02be 5daf e6bd db91 0cbe
000000f0: ee4b 1fbd 01c0 8b3d af23 e83d fa21 6e3d
0.12763081 -0.042615615 -0.2079389 -0.11265637 0.17170289 -0.13578616 -0.11690685 0.09446647
0.07606341 -0.20882784 0.15456422 0.22069338 0.252277 0.16109693 -0.08957434 -0.032340337
-0.011103141 0.05936129 0.04711506 -0.29415715 -0.21205549 0.08340234 -0.0764239 -0.057851672
-0.095743455 0.1026469 -0.068393745 -0.12685575 0.13757445 0.018660253 -0.036780763 -0.15098
0.052384883 -0.005029237 -0.082717724 0.03530148 -0.10321631 0.014314376 -0.12026485 -0.09896018
-0.05964033 -0.012359638 -0.10467724 0.1401993 0.009592945 -0.084627114 -0.016051808 -0.12862642
-0.15968013 -0.016512465 -0.13033903 0.13908297 -0.07031463 -0.010982208 -0.23455614 0.08376273
0.15178771 -0.12748285 -0.11263917 -0.13727514 -0.03889077 0.06823731 0.11334931 0.05813787

fc2.weight f4 [64, 64]
00000000: 3d58 8fbd f663 2bbc aa99 b73d ad9f 923d
00000010: 9ffd 1f3d 9b91 acbd 29ec e0bd 6876 68bd
00000020: 93f1 483c 9dd3 e33c 25bb 1abd 30cc adbd
00000030: c5c4 14be c926 b83d dd05 cabd aa1e eabc
00000040: 7de9 e6bd 9ea7 56bd 5f98 a3bc 32d4 643d
00000050: 2b30 98bd 4163 01bd dcaa 253b 1dab 8cbd
00000060: ee52 03be cbc8 e0bc 6c6c 0f3d 4702 c8ba
00000070: 7a76 3dbd 9e89 083b b6f8 9f3d c1e2 72bd
00000080: c1aa 8d3d c256 01bd 3ccc 9dbd a52c 28bb
00000090: ecec 51be 2a96 433d 88e2 6a3d 0a5d e0bd
000000a0: f439 e6bd 5bcb f3bd de1a ce3d 261e 0ebe
000000b0: 070b 543d 02c8 d6bd 6219 c9bd 7c57 b03d
000000c0: 8fd9 8ebd 4a52 5bbc 75cc 66bd 3ad4 fabc
000000d0: 64fa 29be 5b4b 34be 505d 453d 97d1 73bd
000000e0: cfd7 86bd 5b8e b8bb 69b6 0fbe 2f5f 8e3c
000000f0: 706f 8dba 3ebe 8c3d e3f4 17be 278f 8ebc
00000100: b227 ed3c 7490 a63d d0a8 f4bd a8af 0c3e
00000110: f70d acbd ab4d 673b 38c5 67bd 7aa4 5bbe
00000120: d7c1 8fbe cb35 cfbe 342c c1bd 62c0 bd3e
00000130: 5152 d4be df80 833c 4c60 843d 6515 babd
00000140: efeb 1dbe ed2a 72bd dbfe febd c027 16be
00000150: a4bc 09bd 79dd 03be 0238 003e cfcf 22be
00000160: 0a03 1ebe 30a5 5c3e 4732 853d 29c0 413d
00000170: 719a 0b3e b8cd 0fbd f86f fc3d cccf 3ebe
00000180: 8188 7ebe 8624 d33c e182 6abe bf45 6e3e
00000190: 9d8e 5fbd f349 983e 1f41 9c3d a00e acbd
000001a0: 4fce 88be 9027 833e ea75 93bd dde3 43bd
000001b0: 832e 0bbe 6d0f 02bd be61 e7bd 552d a53d
000001c0: baa6 e63c 6215 0abe 525e e6bd 15fe c63e
000001d0: 691a 25be a969 86be 4271 dd3d 4a96 d43d
000001e0: 3506 adbe d79b 82be d216 f83c c988 6f39
000001f0: 10a9 67be a6ee 17bd 1db5 103e f1f4 fcbd
00000200: 38ea 87be 6716 96bd a7db 953d 60e5 c0bc
00000210: 5ed4 273e 4a5a af3d d3fe a0bc b6c2 64b9
00000220: 58ba 083f 9ed0 40bd 4881 e33d 77a8 28be
00000230: a2c9 833d 3f1f 27bd 5bd9 cabd 2210 363e
00000240: 5c01 cdbd bac4 e63e fd8f 3a3d 7ae5 c3bd
00000250: 9eb0 303e ae7c 4b3e 5573 f4bc 9af4 4f3e
00000260: 5bde 13be a824 81be 6e93 fe3d 000b 56be
00000270: c6c4 04be efa7 fabd 20ca 51be 2405 0fbd
00000280: 14ca b73c ac6b 2ebd 34d6 2ebe a777 33be
00000290: 9bf1 22bd 79fa abbe 1e27 ba3d cd64 3bbe
000002a0: ba47 89be 1c28 f4be 91f3 ac3d 9ac6 c3be
000002b0: bfb2 b2bc 6759 993b 1960 07be d53b 9cbe
000002c0: fca7 8ebd 197d 0ebd 8dcc 13be 387a 53be
000002d0: e39e 5abd e1a7 e2bd 9f6a 0f3e a8df 813d
000002e0: a4cb a1be 4abd 7cbd 0ff3 c93c dedd 06bd
000002f0: 7f4f 1abf 3158 06be 3457 7abd fd25 8dbc
00000300: 1eee 9c3e 423b 81be 9e8e 8cbc 255f 9dbd
00000310: 0a43 9fbe 6f4a d0be 1ecb d1be 7955 a03b
00000320: 2b60 cabd eb17 07be 825d 643e fceb b7be
00000330: 56e6 12be a09f dabd 0ca9 dfbe 2bfe e2be
00000340: 6c0a cfbc 78f2 15bf bf02 50bd ff91 7cbe
00000350: cf81 be3d e977 21bf b8b9 95bd 00f2 c0be
00000360: 251e 523e 144e 4ebb 4dd3 2b3e e111 803d
00000370: 153d 933e fefb 48be 580e cd3e 4f93 b2be
00000380: 4bb7 043d 2a2c eabc f160 aabd ff37 9f3e
00000390: d550 b2be 119a e8be b216 8ebd 7680 5fbe
000003a0: ccb9 463e 4222 f53c 7fd4 7f3e 866f 1bbe
000003b0: 243b aabd aaec 19bf eb16 fbbe 7b7e 2ebe
000003c0: 882e c1be f80a 323d f21b 06be 9e90 bebe
000003d0: d678 04be 85db 393e 83e8 64be f060 273d
000003e0: 52c7 abbe 7992 c0be f3d7 0a3e 1e48 a6be
000003f0: 0063 07bf 0bc4 c2bd 9838 a33e 2a1e 9dbd
-0.06999252 -0.010460844 0.08964856 0.07159362 0.03906023 -0.084262095 -0.10982544 -0.056753546
0.012264627 0.027810866 -0.03777613 -0.08486211 -0.14528187 0.08991773 -0.098643996 -0.028579075
-0.11275003 -0.052405946 -0.019970117 0.055866428 -0.07431062 -0.031588797 0.0025278842 -0.06868575
-0.12824604 -0.027439496 0.03501551 -0.0015259468 -0.046255566 0.002083398 0.0781111 -0.05929828
0.06917334 -0.03157688 -0.0770497 -0.0025661376 -0.20500535 0.04775063 0.057344943 -0.10955246
-0.112415224 -0.11904021 0.10063718 -0.13878688 0.05176833 -0.10487367 -0.098192945 0.08610436
-0.0697509 -0.013386318 -0.05634733 -0.030618776 -0.16599423 -0.17606871 0.048184693 -0.059526052
-0.06584131 -0.0056322045 -0.14034428 0.017379371 -0.0010790657 0.06872223 -0.1483951 -0.017402245
0.028949592 0.08133021 -0.11946261 0.13738883 -0.08401101 0.0035294096 -0.056584567 -0.21449462
-0.28077576 -0.40470728 -0.09432259 0.3706084 -0.41469052 0.016052661 0.0646368 -0.09086112
-0.15422033 -0.05912297 -0.124509536 -0.14663601 -0.033627167 -0.12877454 0.12521365 -0.15899585
-0.15430847 0.21547389 0.0650373 0.0473024 0.13633133 -0.035108298 0.12326044 -0.18633956
-0.2485676 0.025774252 -0.22901489 0.23268794 -0.054579366 0.2974392 0.07629608 -0.08401227
-0.267199 0.2561612 -0.07200225 -0.04782473 -0.13591962 -0.031752992 -0.1129794 0.08065287
0.028155673 -0.1348472 -0.11248459 0.38865724 -0.16123356 -0.26252487 0.10812618 0.10380228
-0.33793798 -0.2550952 0.03028432 0.00022843773 -0.22623086 -0.037092827 0.14131589 -0.12351406
-0.26545882 -0.07328492 0.07317286 -0.023546875 0.16389605 0.08562143 -0.01965276 -0.0002181631
0.5340934 -0.047073953 0.11108643 -0.16470514 0.06434943 -0.040801283 -0.099047385 0.17779592
-0.10010025 0.45071965 0.045547474 -0.095652536 0.17254874 0.1987178 -0.02984015 0.20308152
-0.1444029 -0.2522328 0.12430464 -0.20902634 -0.12965688 -0.12239062 -0.20487261 -0.03491701
0.022435226 -0.042583153 -0.170739 -0.17526112 -0.039781194 -0.33589533 0.09089492 -0.18300171
-0.26812536 -0.4768685 0.08444894 -0.38237458 -0.021813748 0.004679847 -0.13220252 -0.30514398
-0.06965634 -0.03478727 -0.14433499 -0.20652092 -0.053374182 -0.110671766 0.14005516 0.06341487
-0.31600678 -0.061703958 0.024652032 -0.032926433 -0.6027755 -0.1311958 -0.06111832 -0.017230028
0.3065042 -0.25240523 -0.017157849 -0.07684163 -0.31105834 -0.40681788 -0.4097528 0.0048930016
-0.09881624 -0.13192718 0.22301295 -0.3592223 -0.14345679 -0.10674977 -0.4368366 -0.4433454
-0.025273524 -0.585731 -0.05078387 -0.24665068 0.09302103 -0.63073593 -0.07310814 -0.3768463
0.20519312 -0.0031479644 0.16779824 0.0625341 0.2875754 -0.19627377 0.40050006 -0.34878013
0.032401364 -0.028585512 -0.08319271 0.3109741 -0.34827295 -0.45430043 -0.069379225 -0.21826348
0.19406813 0.029923562 0.24983405 -0.15179262 -0.083120614 -0.60126746 -0.49040923 -0.17040436
-0.37730813 0.043467492 -0.13096598 -0.3721971 -0.1293672 0.18150146 -0.22354321 0.04086393
-0.33550507 -0.3761175 0.1355894 -0.32476896 -0.52885437 -0.095100485 0.31879115 -0.07671769

fc2.bias f4 [64]
00000000: cb7c 9dbd 990c 73bd bb9a b13b d5df 143d
00000010: 7427 8d3e 4778 80be a157 f43d 5da9 3e3d
00000020: fcbb 923e 2b08 fc3e 039b c0bd 3a28 d83d
00000030: 4d83 a53d faec e0bd 4a4c 68be c737 373d
00000040: a8bb 7a3e 8cdb 61bd 505a 45bd ece4 533e
00000050: 2ede 763e b46d 143f 3a3e 63be 2bc3 82bd
00000060: 43d5 4ebd 1e31 eebd 3fb3 b43d 167f 0d3d
00000070: bc76 2cbc 54b0 9b3d 4b49 003d 26c1 233e
00000080: 7f9d 403d a1c7 433e e87d 113e f867 d2bd
00000090: 6c6a 0dbe 0314 1cbe 356f 96bd 1748 393d
000000a0: 8dbd 24bd a240 0b3f 8ab4 e03e 53a7 edbd
000000b0: c2bb ac3d e369 1bbe 5aca c33e f059 d6bd
000000c0: 58fe 963d b170 1fbe f031 88bd 5360 cc3e
000000d0: 4e5b b23d 9d62 10bd c296 313d 7149 29bd
000000e0: 3b60 63be 89a2 fbbd ae84 123d 0e88 2dbd
000000f0: afac 0bbb 2fa3 973e 424f 193e dcca 913d
-0.07689818 -0.059338186 0.0054200566 0.036346275 0.27569163 -0.25091764 0.119307764 0.046548236
0.28659046 0.49224982 -0.09404566 0.105545476 0.08081684 -0.109827 -0.22685352 0.044730928
0.24485648 -0.055141017 -0.04818183 0.20692796 0.24108192 0.57979894 -0.22191706 -0.063848816
-0.05049635 -0.11630462 0.08823251 0.034545027 -0.010526355 0.07601991 0.031319898 0.15991649
0.0470252 0.19119121 0.14208186 -0.10273737 -0.13810128 -0.15242009 -0.0734543 0.045234766
-0.040219832 0.54395497 0.4388774 -0.1160418 0.084342495 -0.15177111 0.3824032 -0.10466373
0.07372731 -0.15570332 -0.0665015 0.3991724 0.08708821 -0.035250295 0.043356664 -0.041329805
-0.22204678 -0.122868605 0.035771064 -0.04236608 -0.0021312644 0.29616687 0.1497164 0.071187705

fc3.weight f4 [4, 64]
00000000: fc8c 93bd 3081 a83d 8c64 bc3e ee4b 28bf
00000010: 4300 2a3e 8f83 6bbe a303 8f3e 653a 41bf
00000020: 769a 7b3e 59c4 203e 87d1 1abe ce9e 9ebe
00000030: 8177 823e e4ba f73d 6c4d 3fbe 3c7f 96be
00000040: 6873 783e 0766 163e df5c 653e c308 0d3e
00000050: fae6 6b3d 28cd 483e 80b2 d9bd 5b2c da3d
00000060: 6e2c 53bd a809 14be 6e5f a3be 01ee 813e
00000070: e3c8 8c3e a27d a83e 9527 e5be c0ad de3d
00000080: 9a78 5cbe 02d5 86bc 198f 603d 9104 f6bb
00000090: 364f 58bb b64d 04be 3f84 8bbe ec06 b43e
000000a0: 4548 b23e ee3f 2a3e 66e4 0a3e 6498 a73c
000000b0: 16cb 1f3d 0bad 0ebe bce4 633e 787e 843e
000000c0: 6a28 09bb 3690 99bd 46d0 113f 8dfe d83d
000000d0: 981d 763e f99b 3cbd 031f 3c3c 2e7a 8e3e
000000e0: 1fc0 b9be 26d5 50be 8287 35be a571 6b3d
000000f0: c41f 19be 6f23 013e 972b f1bd a036 323e
00000100: 70e9 cc3d ae93 373d 3433 8b3e c526 d53e
00000110: 1770 093e 4b02 92be 61e4 5c3e 33da 953a
00000120: 94c3 8e3e 7bdb 033e d41c 23be b977 9e3d
00000130: 8552 c43d 8a57 1f3e 4e8c 98be 2b4a 1fbe
00000140: c805 533e c1e8 bf3d 4f7e dfbd a66a 3a3e
00000150: 475a e83d 0d23 823e c71e 31be 080b e33e
00000160: 4e71 debc af37 0fbe ca6a 2ebe 6103 a03e
00000170: bdcf b3be 1796 c93e 227e d43d e053 033e
00000180: 56b5 c6be 0788 c13c 9db5 133e 86f7 3abd
00000190: b244 aa3d 59e0 19be 879f 4abe 3bb2 9a3e
000001a0: eafe e03e 6103 333e 03fa 693d 17f2 8f3e
000001b0: 33d6 393e b74b 35be 27e7 473e 3d1b cc3e
000001c0: 3356 12bc d204 8ebd 31cd 863e c64f 9b3d
000001d0: 8989 3e3e 2d98 763e 8596 1b3e 8b83 a33e
000001e0: 9726 88be 84e5 9ebc 45c9 923d bd33 ccbc
000001f0: 2778 6c3d b800 0a3e 809d cdbe 4a73 113e
00000200: 5f31 c7bc 7325 073f 5582 d43e 2f80 c63d
00000210: 89d2 313e eb87 93bd cde3 ec3d a6ce e9bc
00000220: 2b50 4b3e cb2e 2e3e 40aa 96be f179 eb3e
00000230: 172e f53e 8b28 bebe 5353 cbbe 4912 e93d
00000240: 4734 593e 34ae 6f3d 8cf9 c73e 708e 663d
00000250: 3d58 f1bc 75f1 503e 3d4c 9abe 1ee3 fd3d
00000260: 09fd 273e bd2f b1bd 2eee 91be cd1d 6b3e
00000270: b0f0 693e 5de4 0b3f 1199 9bbe be56 d13c
00000280: 9200 32bf eeab d73b c652 0a3e 6cf3 cd3d
00000290: f521 2f3e 8454 29be 5ab5 aebe bf83 303e
000002a0: b495 6b3e e202 423e 43b8 573e cf60 173f
000002b0: 6fb0 4ebd 222d 86be 0eff 273e 0889 783f
000002c0: 2270 4a3e 1b30 95be baf9 c63e 0991 483e
000002d0: 7236 283c f67a c2bd c5cf fd3d 5ad0 db3e
000002e0: dea0 29be 4ad8 d0bd 8f80 8cbe deae 803d
000002f0: d0e4 7abe 9539 0f3e 73dc c9be ad6c f43d
00000300: 975f 8dbc 9e64 0a3f b314 1a3e a131 763e
00000310: 418a 0f3e 8aea 44be f0e6 e03b 0677 5ebd
00000320: 31db a23e 7590 313e 696f d7bd 74ba c4be
00000330: 3a96 e63e fbb8 783d 82c5 30bd 6646 e3bc
00000340: 649d 533e c616 a33e 36db 04be 792b 253e
00000350: 81dd 023e 3941 813e 85af 33be 3b3b 593f
00000360: 0c5f 92bd bf81 94be 0709 49be e467 2e3f
00000370: e101 d63e a722 513e 5e97 27bf 0517 b03d
00000380: e74e e8be 52c6 303e 6546 d63c 8e0f 7e3c
00000390: 3ecf 4abe 5ab7 25be 0413 533e c7e6 093e
000003a0: 0d68 013e 62aa 433e e7b2 253e e9b5 673c
000003b0: 7601 913e 75c5 36be 2b23 213e 6bcf e039
000003c0: 1009 973d 64ec 72be 0c9b f53e 7282 1f3e
000003d0: 6ac8 3b3e 9970 cabe b235 123e c158 b43e
000003e0: 6e21 c2be 1a07 89be 7160 23bf 15e2 fdbd
000003f0: a2d5 01bf 4498 043e 2559 c73d 37d3 87bb
-0.07204625 0.082277656 0.3679546 -0.6574086 0.16601662 -0.22999404 0.27932462 -0.7547973
0.24570641 0.156999 -0.15118991 -0.30980533 0.254818 0.120961934 -0.18681878 -0.29393947
0.24262774 0.14687358 0.22398709 0.13772874 0.057593323 0.19609511 -0.10629749 0.106529914
-0.051556043 -0.14456809 -0.31908745 0.25376895 0.27497014 0.3290835 -0.4475676 0.10872984
-0.21530381 -0.016458992 0.05482397 -0.0075078686 -0.0033006198 -0.1292027 -0.27249333 0.3516153
0.34820762 0.1662595 0.1356369 0.020458408 0.039012037 -0.13933198 0.22255224 0.25877738
-0.002092863 -0.07498209 0.56958425 0.10595427 0.24034727 -0.046047185 0.011482003 0.2782759
-0.3627939 -0.2039381 -0.17727473 0.057481427 -0.14953524 0.12611173 -0.11775892 0.1740365
0.10005462 0.044818573 0.27187502 0.4163114 0.13421665 -0.28517374 0.21571495 0.0011432826
0.2788359 0.12876694 -0.15928966 0.07737679 0.09586052 0.15560737 -0.29794544 -0.15555637
0.20607674 0.09370566 -0.10912763 0.18204746 0.11345344 0.25417367 -0.17296897 0.44344354
-0.027153637 -0.13986085 -0.17032924 0.31252578 -0.3511943 0.39372322 0.103756204 0.12824965
-0.38810223 0.023624433 0.14424749 -0.045646213 0.08313884 -0.15026988 -0.19787417 0.30214104
0.43944484 0.17481758 0.057123195 0.28114387 0.18148117 -0.17704664 0.19521771 0.3986453
-0.008931684 -0.06934513 0.26328424 0.07583575 0.18607153 0.24081488 0.15194137 0.31936297
-0.26591942 -0.019396551 0.07167295 -0.024927014 0.057731774 0.13476837 -0.40159225 0.14204136
-0.024315534 0.5279152 0.41505685 0.09692418 0.17365469 -0.07203659 0.11566887 -0.02854092
0.198548 0.17010038 -0.29426765 0.4599147 0.47886726 -0.37140307 -0.3971201 0.11380441
0.21211348 0.058515742 0.39057577 0.056288183 -0.02946102 0.20404609 -0.3013629 0.12396835
0.16405119 -0.086516835 -0.2850203 0.22960587 0.22845721 0.5464533 -0.30390218 0.025554057
-0.6953212 0.006581775 0.13508138 0.10056195 0.17102797 -0.16536146 -0.34122735 0.17237757
0.23006326 0.18946412 0.21066384 0.59132093 -0.05046123 -0.2620631 0.1640589 0.97084093
0.19769338 -0.29138264 0.388624 0.19586577 0.010266887 -0.09496109 0.123931445 0.42932397
-0.16565272 -0.10197504 -0.27441832 0.06283353 -0.24501348 0.1398681 -0.39426002 0.11934791
-0.017257495 0.5405978 0.15046959 0.2404237 0.14017583 -0.19230095 0.0068634674 -0.05431273
0.31807855 0.17340262 -0.10519297 -0.38423502 0.4503649 0.060723286 -0.043157108 -0.02774353
0.20665509 0.31853312 -0.12974247 0.16129865 0.1277981 0.25245073 -0.17547424 0.84856004
-0.07147035 -0.29005238 -0.1963235 0.68127275 0.41798308 0.20423375 -0.65465343 0.085981406
-0.45372698 0.17263153 0.026156614 0.015506638 -0.19805619 -0.16183224 0.20612723 0.13466941
0.12637348 0.19107965 0.16181527 0.014142492 0.28321427 -0.17848761 0.15736072 0.00042879148
0.073747754 -0.23722988 0.47969854 0.15577105 0.1833817 -0.3953903 0.14278296 0.35223964
-0.3791613 -0.2676323 -0.6381903 -0.12396637 -0.507166 0.1294871 0.097338 -0.004145052

fc3.bias f4 [4]
00000000: 8ef7 c63e db56 953e c14b 6b3e a31c 583e
0.38860744 0.29167828 0.22978117 0.21104674
